azure/deep-learning-basics/iris_classifier.pt (torch_old, 1808 bytes, 6 tensors)

fc1.weight f4 [10, 4]
000000 ea 91 32 3f 34 60 60 3f a2 84 53 bf 14 2f 27 bf
       0.697539 0.87646794 -0.82624257 -0.6530621
000010 e3 60 34 bd 5a 52 be 3e 54 f1 05 3f b4 e7 cd 3e
       -0.04403771 0.37172204 0.5232136 0.40215838
000020 24 4f 8b be f8 7d 57 3e 44 87 1f 3e 00 43 32 3d
       -0.27208817 0.21044147 0.15578943 0.043520927
000030 57 d7 2e be e5 f7 99 be 53 1b a7 3f f1 6e 0e 3f
       -0.17074333 -0.3007194 1.3055214 0.55638033
000040 df 7c ba be 91 43 39 3d 21 70 0c 3f 92 9f 10 3f
       -0.36423394 0.045230452 0.54858595 0.56493485
000050 fa b2 1c bc 4a f8 84 3d 8e 17 bd be 18 d3 f4 3e
       -0.009564156 0.0649267 -0.36932033 0.47817302
000060 17 20 3a 3f 84 5c 09 3e f5 db 09 bf 62 fe 4b bf
       0.72705215 0.13414198 -0.5385125 -0.7968503
000070 70 e6 03 be 98 4c 83 3e 22 08 ec be 78 c4 d0 3e
       -0.12880874 0.25644374 -0.46099955 0.40774894
000080 7d 0f 41 3f c5 3d 1e 3f 21 6c 49 be 17 ea 8f be
       0.7541426 0.61813 -0.19670154 -0.28108284
000090 34 4f 7c be f4 51 fb be 00 c2 e4 bd ce b1 db 3e
       -0.24639589 -0.49085963 -0.11169815 0.42909092

fc1.bias f4 [10]
000000 c3 c9 09 be 3f 73 f2 be 5c bc 40 be 80 e1 a2 be
       -0.13455872 -0.4735355 -0.18821853 -0.31812668
000010 dc 8d bd be 45 33 0f 3e bd a8 14 bc fe 03 94 be
       -0.37022293 0.13984402 -0.0090734335 -0.28909296
000020 02 d2 17 3e 9e 5e e0 3e
       0.14826205 0.43822187

fc2.weight f4 [10, 10]
000000 bc d2 cc 3d 07 7e 92 be 04 c6 31 3e 98 63 ff 3d
       0.10001132 -0.28611776 0.17360693 0.12470168
000010 6a 58 12 3e aa ce 88 be a9 e2 55 be 04 5e db 3d
       0.1429154 -0.26720172 -0.20887245 0.107112914
000020 17 5d 9a be e5 90 18 be 65 3f 96 be e6 a6 80 be
       -0.30149147 -0.14899023 -0.2934524 -0.25127333
000030 e0 a5 2c bc 76 0d 68 3e 06 e1 02 be ee 5c e1 bd
       -0.010537595 0.22661385 -0.12781152 -0.11004053
000040 c0 d2 f0 bb 40 e8 ce bc 3a fb 16 be 80 5c 77 bb
       -0.007349342 -0.02525723 -0.14744273 -0.0037744343
000050 96 68 ef 3e 0c e6 52 be 58 d9 a0 3d b9 b5 37 be
       0.4675948 -0.20595568 0.07853955 -0.17940415
000060 ba 99 f3 be 82 1d e6 3d 0a 25 6c 3e a6 6c 72 be
       -0.47578222 0.11236097 0.23061004 -0.23674259
000070 36 15 dc 3e 73 9a 82 3e 2c 25 6e 3e 7f 91 2b 3e
       0.42984933 0.2550846 0.23256367 0.16754721
000080 01 d2 96 3e 7c 93 67 be d0 e3 dd 3d 97 c0 9f be
       0.29457095 -0.22614855 0.108344674 -0.31201622
000090 19 4c 7f 3e 08 e4 99 3d 82 d8 81 be ed ba 6f be
       0.24931373 0.07514197 -0.25360495 -0.2341115
0000a0 4a 4e 76 3f 12 ce 41 be f2 e2 0d 3e 7b dd 33 bf
       0.9621321 -0.18926266 0.13856104 -0.7025983
0000b0 68 c3 08 bf cb 30 31 3e 02 5f 5d 3f 72 ca 85 be
       -0.53423166 0.1730377 0.86473095 -0.26131016
0000c0 06 ab 3a 3f f1 fc 90 be 1a 09 c2 bd b0 f0 12 3f
       0.7291721 -0.2831798 -0.09474392 0.5739851
0000d0 22 00 44 3e 6b 97 6c 3f 25 f2 50 3e 8c 1c 25 bc
       0.19140676 0.92418545 0.20404871 -0.010077607
0000e0 73 12 96 be c3 53 9e be 09 e3 7d 3e 2e 82 5a be
       -0.2931095 -0.3092328 0.24793638 -0.21338722
0000f0 ed 13 28 3f 6a 67 2b be 24 f1 de 3d 74 7c 4d bf
       0.65655404 -0.16738668 0.10885838 -0.80268025
000100 72 76 28 be 26 d1 3a be e8 3a 81 3e 7e 1d 0d be
       -0.16451433 -0.18243846 0.25240254 -0.13780782
000110 81 d6 78 3e b0 57 da bc b6 72 56 be d0 01 8a be
       0.24300577 -0.02665314 -0.20942196 -0.26954508
000120 c6 95 8d be 70 06 ad bc 60 ad d5 3c 11 28 20 be
       -0.2765333 -0.021121234 0.026083648 -0.15640284
000130 a8 02 02 bd 5c b2 85 be a4 4a e0 3d 21 4e 9f 3e
       -0.031740814 -0.2611264 0.109517366 0.31114295
000140 22 14 fb bd 9d 58 6a be ed 43 86 3e 79 84 93 3e
       -0.122596994 -0.22885366 0.26223698 0.28812006
000150 b1 c7 12 3d 00 05 5e bb c7 20 96 3e 80 11 90 3d
       0.03583497 -0.0033877492 0.29321882 0.07034588
000160 73 e0 56 be 4a d3 53 be fb 74 7c 3e 56 01 91 bc
       -0.20984058 -0.20686069 0.24654 -0.017700832
000170 f0 8a 0e bd df 94 a1 be 85 bc 72 be 69 86 87 bd
       -0.03480047 -0.31558892 -0.23704727 -0.066174336
000180 60 65 8a 3e 48 59 a3 3d a5 0b 89 be b8 e6 e0 bd
       0.27030468 0.079760134 -0.26766697 -0.10981506

fc2.bias f4 [10]
000000 89 15 81 3e b7 f7 9b 3e fe b2 7f bd 73 89 9a be
       0.25211743 0.3046243 -0.06242656 -0.3018299
000010 69 d8 86 3d c1 23 9b be 83 54 31 bc 74 b4 77 be
       0.06584246 -0.30300716 -0.010823372 -0.24189931
000020 f6 80 33 3e 29 73 90 be
       0.17529663 -0.2821286

fc3.weight f4 [3, 10]
000000 96 c2 00 be 00 78 8a b9 e4 19 e6 3d 7c a8 ba 3d
       -0.12574229 -0.00026410818 0.11235407 0.09114167
000010 b3 b8 03 3f 71 61 73 bf cf bb 79 3f 3c a8 b8 bd
       0.51453704 -0.9507056 0.975522 -0.09016463
000020 7b b9 33 be fe d0 92 be 0f 73 85 be 64 2b a8 3d
       -0.17551224 -0.28675073 -0.26064345 0.08211401
000030 fb 35 f7 3e ff a1 0b bc 6d b6 db 3e 88 a7 aa 3c
       0.4828337 -0.00852251 0.42912617 0.020831838
000040 b8 a2 06 bf 06 40 70 3e c9 d6 1a be 79 68 42 3c
       -0.5259204 0.23461923 -0.15120997 0.011865729
000050 20 78 62 3d 37 0b 9a 3e 75 73 02 bf cb 52 2e be
       0.05529034 0.3008668 -0.50957423 -0.1702377
000060 42 4b bb bf 35 ab 3f 3f 37 84 4c be 8a 33 87 be
       -1.4632342 0.74870616 -0.19972311 -0.2640651
000070 ac 83 3c 3e ea ad 01 be
       0.18409604 -0.12663999

fc3.bias f4 [3]
000000 df b2 d8 3d d7 d9 c6 3d 50 03 22 bc
       0.10580992 0.097095184 -0.009888485
